tests/test_xabo/kernel/fixtures/kernel_expected.npz (npz, 18162 bytes, 36 tensors)

Matern12_(4, 1)×(6, 1)→(4, 6)_x f4 [4, 1]
0	0x3f1b135a	0.60576403
1	0x3f4c8e27	0.7990441
2	0xbf68af71	-0.908927
3	0xbf22a03d	-0.63525754

Matern12_(4, 1)×(6, 1)→(4, 6)_y f4 [6, 1]
0	0x3edd5747	0.4323065
1	0x3f1656ec	0.5872638
2	0xbf922262	-1.1416743
3	0xbebf6297	-0.37379906
4	0xbe4be153	-0.19910173
5	0xbfdd11ec	-1.7271094

Matern12_(4, 1)×(6, 1)→(4, 6)_out f4 [4, 6]
0	0x3ae74f3b	0.0017647514
1	0x3c082af7	0.008311025
2	0x2f8da02c	2.576156e-10
3	0x351580e2	5.5694375e-07
4	0x36566ef2	3.1953064e-06
5	0x2b4febee	7.386859e-13
6	0x3985ebc9	0.0002554341
7	0x3a9dac8a	0.001202957
8	0x2e23fe56	3.7287805e-11
9	0x33ad1daf	8.06134e-08
10	0x34f84cf8	4.6249602e-07
11	0x29f0c28c	1.06918895e-13
12	0x32808def	1.4965705e-08
13	0x315a6066	3.1777971e-09
14	0x3a7fb350	0.00097541977
15	0x3846e5ae	4.7420785e-05
16	0x370aabf6	8.265479e-06
17	0x363bb29d	2.7969138e-06
18	0x34780b33	2.3100874e-07
19	0x3352ad54	4.9052076e-08
20	0x388485c8	6.319169e-05
21	0x3a3fe274	0.0007319816
22	0x3905c853	0.00012758495
23	0x34428ea5	1.8119552e-07

Matern12_(2, 7, 4)×(2, 3, 4)→(2, 7, 3)_x f4 [2, 7, 4]
0	0xbe57f3a4	-0.21089035
1	0xbfae700f	-1.3627948
2	0xbd3855f5	-0.04500385
3	0xbf93aa75	-1.1536394
4	0x3ff501af	1.9141139
5	0xbef43b11	-0.47701314
6	0x3f25db3e	0.6478766
7	0x3f2cbbc4	0.6747401
8	0x403cdb19	2.9508727
9	0xbf5fdde0	-0.8744793
10	0x3fa6ff25	1.3046614
11	0xbf069963	-0.525778
12	0x3f0104d7	0.5039801
13	0x3f850c9f	1.0394477
14	0xbe29acf5	-0.16569884
15	0xbeed3b19	-0.4633415
16	0x3f0ee4f2	0.5581809
17	0xbff522f4	-1.9151292
18	0x3ec8e1a5	0.39234653
19	0xbf68ff68	-0.9101472
20	0xbe9047d4	-0.281798
21	0x3e5e8181	0.2172909
22	0x3eb85722	0.36003977
23	0x402f352b	2.73762
24	0x3ed6cd0e	0.4195332
25	0x3fda583d	1.7058178
26	0x3edd7135	0.43250433
27	0xbff31b62	-1.8992732
28	0xbf7de61e	-0.99179256
29	0x3fc1f8e3	1.5154079
30	0x3e800361	0.25002578
31	0xbefbfa7c	-0.49214542
32	0xbfbb1705	-1.46164
33	0xbf43b1ad	-0.76442987
34	0x3fd8f575	1.6949908
35	0x3dad307c	0.08456513
36	0xbba10a0d	-0.004914528
37	0x3f8b8432	1.0899718
38	0xbd59b15f	-0.05314767
39	0xbed75233	-0.420549
40	0xbf807139	-1.0034553
41	0x4000ddf6	2.0135474
42	0xbfecfb0f	-1.8514117
43	0x3e9771cc	0.29579008
44	0xbe225821	-0.15853931
45	0xbeffdb74	-0.49972117
46	0xbe2e69b2	-0.17032507
47	0xbeab85da	-0.33500558
48	0x3f813467	1.0094117
49	0xbe234973	-0.15945987
50	0xbec716bd	-0.38884535
51	0xbf82ca94	-1.0218072
52	0xbf6c4d99	-0.92305905
53	0x3ef39a6d	0.47578755
54	0xbc1bb731	-0.009504125
55	0x3f5cd07e	0.86255634

Matern12_(2, 7, 4)×(2, 3, 4)→(2, 7, 3)_y f4 [2, 3, 4]
0	0xbfe9b966	-1.8259704
1	0xbed06630	-0.40702963
2	0x3f0dc7ac	0.553828
3	0x4013514b	2.3018367
4	0x3f99297a	1.1965783
5	0xbf236009	-0.63818413
6	0x3f153073	0.5827705
7	0x3fb11e8d	1.3837448
8	0xbfa6d862	-1.3034785
9	0x3f85a1d8	1.0440016
10	0xbf068316	-0.5254377
11	0xbf7649fb	-0.96206635
12	0x3fbaf29f	1.4605292
13	0xbee3ea16	-0.4451453
14	0xbf0bd802	-0.54626477
15	0xbfaf1eca	-1.3681271
16	0xbe8c6b3d	-0.27425566
17	0xbee6f348	-0.45107484
18	0x3fc24a71	1.5178968
19	0xbf5b32a5	-0.8562415
20	0xbf40e9df	-0.7535686
21	0x3f99d6b6	1.201865
22	0xbe38b1b6	-0.18036541
23	0xbeaaea49	-0.3338187

Matern12_(2, 7, 4)×(2, 3, 4)→(2, 7, 3)_out f4 [2, 7, 3]
0	0x0c5b173d	1.6878139e-31
1	0x15f46917	9.871662e-26
2	0x1e109390	7.653812e-21
3	0x143c6504	9.511496e-27
4	0x30366884	6.635974e-10
5	0x05aef9f7	1.6454704e-35
6	0x00000000	0.0
7	0x1acc5369	8.450718e-23
8	0x00000000	0.0
9	0x07c207d9	2.9194488e-34
10	0x18521c2b	2.7156085e-24
11	0x28e36f81	2.525042e-14
12	0x07b9566a	2.7886496e-34
13	0x1c6bf9b8	7.807773e-22
14	0x12617ff8	7.1155215e-28
15	0x27fdfc81	7.049537e-15
16	0x1ff599cc	1.0401597e-19
17	0x0dba0d7b	1.146638e-30
18	0x00000000	0.0
19	0x0cde6b1e	3.4268985e-31
20	0x1d433e69	2.58403e-21
21	0x103d7ef4	3.737148e-29
22	0x1d083410	1.8026366e-21
23	0x33ef4229	1.1141339e-07
24	0x0a1d86e9	7.584649e-33
25	0x293ef6b9	4.2402473e-14
26	0x184d4a65	2.6533189e-24
27	0x1c1babff	5.15075e-22
28	0x209c234e	2.645079e-19
29	0x34676ef2	2.1553913e-07
30	0x033551a1	5.3284825e-37
31	0x048480e0	3.1151404e-36
32	0x23e6a3f8	2.5006093e-17
33	0x25ebe973	4.0924193e-16
34	0x2b0a0f77	4.904891e-13
35	0x2b858790	9.487845e-13
36	0x332fef70	4.096313e-08
37	0x21d4ae0f	1.4411752e-18
38	0x1f22fda4	3.451464e-20
39	0x1058328a	4.2637423e-29
40	0x195d876e	1.1452782e-23
41	0x2bd17f19	1.488562e-12

Matern12_(4, 2, 7, 1)×(4, 2, 3, 1)→(4, 2, 7, 3)_x f4 [4, 2, 7, 1]
0	0xbeca3017	-0.39489815
1	0xbeda181f	-0.42596528
2	0xbf89365e	-1.0719717
3	0xbfc66111	-1.5498372
4	0x401e42f4	2.4728365
5	0x3f3c9691	0.73667246
6	0xbf33e1cd	-0.7026642
7	0x3f4fda70	0.81192684
8	0x3ffb3187	1.962449
9	0x3f99bdcf	1.201105
10	0xbf870d7c	-1.055099
11	0x400c6007	2.193361
12	0x3fc361c1	1.5264207
13	0xbcbf7d6b	-0.023375234
14	0xbf4cfc21	-0.8007222
15	0xbef0019b	-0.46876225
16	0x3f2e4540	0.6807442
17	0xbc327021	-0.010890991
18	0xbf80e1eb	-1.0068945
19	0xc00a0b62	-2.1569448
20	0xbf39898e	-0.72475517
21	0xbf882dc9	-1.0638973
22	0xbf2544cd	-0.64558107
23	0xbff5450f	-1.91617
24	0x3d759a33	0.05996151
25	0x3fc9bc84	1.5760655
26	0x3e9362a2	0.28786188
27	0xc01a775a	-2.4135346
28	0x3f819f46	1.0126731
29	0xbe572905	-0.21011741
30	0x3f122869	0.5709291
31	0x3f851638	1.0397406
32	0xc018ec7a	-2.3894334
33	0xbf820168	-1.0156679
34	0x3dd15973	0.10222139
35	0xbf09e926	-0.5387138
36	0x3edc2521	0.42997077
37	0xbf0b9b5e	-0.54533947
38	0xbfd6e2b9	-1.678794
39	0x3f1a6d49	0.60323006
40	0x3fedadb1	1.8568631
41	0x3d14b061	0.03630102
42	0x3f02aad0	0.5104189
43	0x3eddd3b6	0.43325585
44	0xbf3590b7	-0.7092394
45	0xbde82819	-0.11335773
46	0xbec56a54	-0.38557684
47	0x4053c720	3.3090286
48	0xbf84bf55	-1.037089
49	0xbda03adf	-0.07823729
50	0x3eaf9695	0.34294572
51	0xbf2dabf7	-0.6784052
52	0x3d4934ce	0.049122624
53	0xbfbbf6bd	-1.4684674
54	0x3e88ea9d	0.26741496
55	0x3f843ebb	1.0331644

Matern12_(4, 2, 7, 1)×(4, 2, 3, 1)→(4, 2, 7, 3)_y f4 [4, 2, 3, 1]
0	0x3e8fb2f7	0.28066227
1	0x3ee56ccd	0.4480957
2	0x3ffffbc0	1.9998703
3	0x404de579	3.217131
4	0x3f1f9957	0.62343353
5	0x3f8298d4	1.020289
6	0x3e400b21	0.18754245
7	0x3f1060ba	0.56397593
8	0x3f773484	0.9656451
9	0xbf8721c5	-1.0557181
10	0x3f0595a5	0.52181464
11	0x3fc9333a	1.5718758
12	0xbf276260	-0.65384483
13	0xbff4cdff	-1.9125365
14	0xbd93319e	-0.07187198
15	0xbf818220	-1.0117836
16	0xbf9cbf8b	-1.2245954
17	0xbde540b9	-0.111939855
18	0xbfa54225	-1.2910811
19	0x3e318c1a	0.17338601
20	0x3ec20051	0.37890866
21	0x3fccd215	1.6001612
22	0x3f57127b	0.84012574
23	0xbfa96faa	-1.3237202

Matern12_(4, 2, 7, 1)×(4, 2, 3, 1)→(4, 2, 7, 3)_out f4 [4, 2, 7, 3]
0	0x374357db	1.1643361e-05
1	0x3612747b	2.1823496e-06
2	0x2adfef65	3.977887e-13
3	0x370f2d7e	8.534056e-06
4	0x35d6b08e	1.5995627e-06
5	0x2aa42267	2.9156124e-13
6	0x32656800	1.3353201e-08
7	0x312bfe45	2.502831e-09
8	0x26037df6	4.5620464e-16
9	0x2ef6df35	1.12264344e-10
10	0x2db9167b	2.1042048e-11
11	0x228d80d2	3.835452e-18
12	0x2c544519	3.0165369e-12
13	0x2d8d9068	1.6093973e-11
14	0x38b92ac7	8.829455e-05
15	0x38db6206	0.00010460992
16	0x3a124ec2	0.0005581194
17	0x330c44d0	3.2658875e-08
18	0x350ffb54	5.363738e-07
19	0x33d7e532	1.0053408e-07
20	0x28a50e5d	1.8324909e-14
21	0x2ac9be92	3.5837007e-13
22	0x3ac704c9	0.0015183921
23	0x3aa3281b	0.0012447865
24	0x3318bcc4	3.556194e-08
25	0x32837004	1.5301346e-08
26	0x355950c9	8.095636e-07
27	0x2d9a7457	1.7559438e-11
28	0x3801f9f6	3.098879e-05
29	0x3ad6e652	0.0016395545
30	0x1d52f838	2.7921595e-21
31	0x300d0c29	5.131278e-10
32	0x2d2a9e2b	9.6985016e-12
33	0x34c02c75	3.5795134e-07
34	0x30d0ee32	1.5201691e-09
35	0x33acb853	8.0429025e-08
36	0x2ff9c08f	4.5429657e-10
37	0x35a0c359	1.1977783e-06
38	0x3884e69c	6.337205e-05
39	0x24c2c18f	8.446199e-17
40	0x37823511	1.5521919e-05
41	0x349d813e	2.9337565e-07
42	0x35090b60	5.105303e-07
43	0x324b55a6	1.1835629e-08
44	0x2f6a6763	2.1318906e-10
45	0x376cd2d2	1.4115782e-05
46	0x34afb069	3.2724645e-07
47	0x31ca88b4	5.894515e-09
48	0x38973ece	7.2119394e-05
49	0x3b4bdfc0	0.0031108707
50	0x3a17c927	0.0005790167
51	0x3ab42ff9	0.0013747207
52	0x3805ac58	3.187018e-05
53	0x351a1923	5.740605e-07
54	0x338b7e84	6.495705e-08
55	0x30cef832	1.5059014e-09
56	0x2dee9810	2.7124997e-11
57	0x2b391f97	6.5769043e-13
58	0x288955d0	1.524727e-14
59	0x259e51c6	2.7464043e-16
60	0x35927892	1.0912938e-06
61	0x32d95230	2.52995e-08
62	0x2ffa8709	4.5570683e-10
63	0x3c16f8fd	0.009214637
64	0x30b26c3c	1.2981967e-09
65	0x2920e522	3.5725878e-14
66	0x392d8a0a	0.00016549989
67	0x33b6cece	8.512653e-08
68	0x2c24d96e	2.34265e-12
69	0x35f5fd0e	1.8327571e-06
70	0x2a915b7a	2.582065e-13
71	0x23031407	7.105765e-18
72	0x34194ed7	1.4277917e-07
73	0x38ceee8b	9.8672775e-05
74	0x313a9a7c	2.7154377e-09
75	0x292771a4	3.7180017e-14
76	0x348daebb	2.639043e-07
77	0x3c1d1e0b	0.009589682
78	0x327b255e	1.4618619e-08
79	0x3a7ca2ee	0.00096373155
80	0x32e3d16e	2.6521516e-08
81	0x3259d1dc	1.2678779e-08
82	0x2700b655	1.786241e-15
83	0x1f6822d5	4.9156723e-20
84	0x301f0dc5	5.786343e-10
85	0x270e72b6	1.9768644e-15
86	0x34514e26	1.9493072e-07
87	0x38f80dce	0.00011828133
88	0x2fde27e2	4.0409903e-10
89	0x3b24786a	0.0025096186
90	0x334dfc06	4.7959496e-08
91	0x2a387a81	1.6384985e-13
92	0x37878810	1.6156613e-05
93	0x2ff2ac59	4.4142004e-10
94	0x26d9562b	1.5080756e-15
95	0x341fabf7	1.487059e-07
96	0x2f9f715c	2.9002478e-10
97	0x38b207ae	8.489132e-05
98	0x2b725347	8.609124e-13
99	0x398caac0	0.000268301
100	0x35aae81b	1.2733539e-06
101	0x3555ca20	7.9642814e-07
102	0x36aea93d	5.205306e-06
103	0x2d9c6ce9	1.7783513e-11
104	0x3ae5d7e9	0.001753566
105	0x38b8f9b5	8.820315e-05
106	0x37302fe0	1.0501564e-05
107	0x3912f0fd	0.0001401342
108	0x31bc2ff3	5.4769713e-09
109	0x30333f0d	6.520942e-10
110	0x3839da9e	4.431104e-05
111	0x38c5a579	9.424514e-05
112	0x373c4186	1.1220929e-05
113	0x39098564	0.0001311503
114	0x3754c7a5	1.2682668e-05
115	0x38df64b9	0.0001065223
116	0x30d77384	1.567614e-09
117	0x30851af4	9.684684e-10
118	0x2efd8fe5	1.1530669e-10
119	0x3703746e	7.835317e-06
120	0x277ac994	3.4803745e-15
121	0x25eedf49	4.1437723e-16
122	0x2df7ad7d	2.8157693e-11
123	0x3496b1ad	2.8068953e-07
124	0x330f88d7	3.3419237e-08
125	0x3b14d362	0.0022709002
126	0x2f24f661	1.5003244e-10
127	0x39b43dcf	0.00034378326
128	0x3b2fedea	0.0026844689
129	0x2fb26e53	3.2456401e-10
130	0x3a42f513	0.00074370316
131	0x3bbe4b0a	0.005807285
132	0x37f955d2	2.9723076e-05
133	0x35c51169	1.4682711e-06
134	0x3449e5f5	1.8803242e-07
135	0x33a4dece	7.677373e-08
136	0x3a1503a4	0.00056844414
137	0x3898aaab	7.279714e-05
138	0x359cc462	1.1680061e-06
139	0x381cb778	3.7364167e-05
140	0x36a08ed4	4.784999e-06
141	0x1afe560a	1.0519094e-22
142	0x258af24f	2.4103379e-16
143	0x27079f47	1.8821358e-15
144	0x3a4ec289	0.00078872644
145	0x336da5d9	5.53317e-08
146	0x31f37907	7.08599e-09
147	0x300d3c9b	5.1381627e-10
148	0x3589d9de	1.0270703e-06
149	0x3327744b	3.8988485e-08
150	0x3314ea94	3.4672283e-08
151	0x389158b6	6.9306625e-05
152	0x301ed1a0	5.777796e-10
153	0x2bb2f229	1.2714874e-12
154	0x312ea7f6	2.5415807e-09
155	0x37842ab7	1.5755517e-05
156	0x30fc5e40	1.8362201e-09
157	0x3676518c	3.6704323e-06
158	0x323b6e1c	1.0909869e-08
159	0x2607c941	4.7110284e-16
160	0x2b8487f7	9.416902e-13
161	0x3b1a1e00	0.0023516417
162	0x328bf107	1.6291336e-08
163	0x38089638	3.256483e-05
164	0x30a9011b	1.2296683e-09
165	0x38109e5a	3.447975e-05
166	0x3abe2cd7	0.0014509213
167	0x2b2389f2	5.810067e-13

Matern32_(4, 1)×(6, 1)→(4, 6)_x f4 [4, 1]
0	0x3f2c6330	0.6733885
1	0xbf024949	-0.50893074
2	0xbe916919	-0.28400496
3	0x4001ebd9	2.03002

Matern32_(4, 1)×(6, 1)→(4, 6)_y f4 [6, 1]
0	0xbf102237	-0.5630221
1	0xbe5b8402	-0.21437076
2	0x3f684910	0.90736485
3	0xbd3a3537	-0.045460906
4	0xbf8ecfa0	-1.1157112
5	0xbf723ab5	-0.9462083

Matern32_(4, 1)×(6, 1)→(4, 6)_out f4 [4, 6]
0	0x2ef6be1e	1.12205564e-10
1	0x3313aa21	3.4380836e-08
2	0x3a6629e3	0.00087800453
3	0x350d56a0	5.265265e-07
4	0x2848be45	1.1143488e-14
5	0x2a56a88b	1.9065493e-13
6	0x3bf8b231	0.0075896014
7	0x39c2ab5a	0.0003713023
8	0x2cc76a41	5.6677167e-12
9	0x37f72440	2.9461575e-05
10	0x3652a163	3.1386378e-06
11	0x3838bbf1	4.4044053e-05
12	0x39f3911c	0.00046456687
13	0x3bd8685b	0.006604237
14	0x2f81e62e	2.3628516e-10
15	0x3a57fc62	0.0008239207
16	0x33b760a5	8.539181e-08
17	0x35aec246	1.3020551e-06
18	0x1e877024	1.4340061e-20
19	0x22c0b33d	5.223148e-18
20	0x3049c8f8	7.340897e-10
21	0x24d015bf	9.024246e-17
22	0x17ba9fdf	1.2060325e-24
23	0x19d019ed	2.1517167e-23

Matern32_(2, 7, 4)×(2, 3, 4)→(2, 7, 3)_x f4 [2, 7, 4]
0	0x3f9bed46	1.2181785
1	0xbf4ca1d7	-0.7993445
2	0x3ec72dfd	0.38902274
3	0xbf9a9d16	-1.2079189
4	0x3ef71813	0.48260555
5	0x3e80e7be	0.25176805
6	0x3da8be98	0.08239478
7	0xbf093188	-0.53591204
8	0xbea822e0	-0.32839108
9	0x3f453153	0.7702839
10	0x3de27d2b	0.1105903
11	0x3e7025d7	0.23451935
12	0x3f0544c7	0.5205807
13	0x3feaa48c	1.8331466
14	0x3f595770	0.84899044
15	0xbf95388c	-1.1657882
16	0xbf22fc62	-0.63666356
17	0x3fc44e73	1.5336441
18	0x3fdd0411	1.7266866
19	0x3e9dda63	0.30830678
20	0x3ee78e0f	0.4522557
21	0x3f81a838	1.0129461
22	0x3eb3ca08	0.35115075
23	0x3f4a41c8	0.79006624
24	0x3e4b5ddb	0.19860022
25	0x3f7aa1de	0.9790324
26	0x3e213855	0.15744145
27	0x40119365	2.2746212
28	0xbe954475	-0.2915379
29	0x3ec25fe5	0.37963787
30	0xbe398954	-0.18118793
31	0xbf92cfde	-1.1469686
32	0x3f913350	1.1343784
33	0xbe39abf7	-0.18132006
34	0x3f24a97b	0.64321107
35	0xbf1ce3cb	-0.61285084
36	0x3e7924c0	0.24330425
37	0xbe2fa9f0	-0.1715467
38	0xbd383f61	-0.044982318
39	0xbed666d4	-0.41875327
40	0xbf32f426	-0.6990379
41	0xbc0a3529	-0.008435526
42	0xbf5b0dd1	-0.8556796
43	0xbf4801c0	-0.7812767
44	0xbfb2eb0a	-1.3977978
45	0xbfe35805	-1.7761236
46	0x3f929166	1.1450622
47	0xbf9cf78a	-1.2263043
48	0x3fbe2352	1.4854529
49	0xbe176664	-0.14785153
50	0xbedc198c	-0.4298824
51	0x3f8206f9	1.0158378
52	0xbefeebe4	-0.49789345
53	0x3f86246d	1.0479866
54	0x3e5e341c	0.21699566
55	0xbebade8a	-0.3649791

Matern32_(2, 7, 4)×(2, 3, 4)→(2, 7, 3)_y f4 [2, 3, 4]
0	0x3da4ef6a	0.08053477
1	0xbf1785e3	-0.5918867
2	0x3d9ef675	0.07761852
3	0x3f59b30e	0.8503884
4	0x3eb5fade	0.3554296
5	0x3ea31c79	0.3185766
6	0xbf6629e9	-0.899077
7	0x3f8a694f	1.0813388
8	0xbf19dc93	-0.60102195
9	0xbf66dcb2	-0.90180504
10	0x3f00cf66	0.50316465
11	0xbd884880	-0.06654453
12	0xc00b37c4	-2.1752787
13	0xbe99150c	-0.2989887
14	0x3f29d50e	0.6634072
15	0x3eb5e361	0.3552504
16	0xc0076327	-2.1154268
17	0x3f38a09d	0.72120076
18	0xbe92d0b2	-0.28674847
19	0xbf16b400	-0.5886841
20	0xbe79c67e	-0.24392125
21	0x3f6beabb	0.92155045
22	0x3f963206	1.1734016
23	0xbf11a7a6	-0.56896436

Matern32_(2, 7, 4)×(2, 3, 4)→(2, 7, 3)_out f4 [2, 7, 3]
0	0x10bca6ab	7.440972e-29
1	0x00000000	0.0
2	0x175a9f71	7.064084e-25
3	0x1e010904	6.8310675e-21
4	0x1c12ba1c	4.854789e-22
5	0x17ff2aef	1.6489827e-24
6	0x209ea49e	2.6875176e-19
7	0x199f23dc	1.6454698e-23
8	0x1dfb5a6a	6.6532633e-21
9	0x00000000	0.0
10	0x00000000	0.0
11	0x00000000	0.0
12	0x0082c8e0	1.2010675e-38
13	0x00000000	0.0
14	0x0c6315dc	1.7494022e-31
15	0x21fcb614	1.712438e-18
16	0x21ad6541	1.1749738e-18
17	0x0d8a78dd	8.534003e-31
18	0x1726ea4d	5.393322e-25
19	0x18b1b437	4.59354e-24
20	0x00000000	0.0
21	0x020a428c	1.0157737e-37
22	0x1b9db41f	2.6089872e-22
23	0x1f611d04	4.7669604e-20
24	0x081cddbb	4.7205185e-34
25	0x00000000	0.0
26	0x18d9528b	5.6176532e-24
27	0x0ce4dccd	3.5261852e-31
28	0x11638b51	1.7950073e-28
29	0x1a257b87	3.4220985e-23
30	0x080baf77	4.203505e-34
31	0x1aa71117	6.909719e-23
32	0x11d4a41d	3.3548845e-28
33	0x0950b370	2.512146e-33
34	0x00000000	0.0
35	0x069cdc8c	5.900474e-35
36	0x00000000	0.0
37	0x00000000	0.0
38	0x00000000	0.0
39	0x0ae3da12	2.1941334e-32
40	0x1d8eaa26	3.7763016e-21
41	0x2b483999	7.1134206e-13

Matern32_(4, 2, 7, 1)×(4, 2, 3, 1)→(4, 2, 7, 3)_x f4 [4, 2, 7, 1]
0	0x3f50f8d9	0.8162971
1	0xbf854c86	-1.0413978
2	0xbdc0244f	-0.09381925
3	0x3fa4fc55	1.2889506
4	0xbf53d493	-0.8274624
5	0x3f0d6be9	0.5524278
6	0xbfa1e426	-1.264775
7	0x3fd8bdbd	1.6932904
8	0xbdadce6c	-0.084866375
9	0xbd91918e	-0.071078405
10	0x3e490c12	0.1963351
11	0x3faa2759	1.3293258
12	0xc011f8da	-2.2808137
13	0xbf39e5f7	-0.72616524
14	0x3f841384	1.0318456
15	0x3fe49d62	1.786053
16	0xbf9541fa	-1.166076
17	0x3eaa835f	0.33303353
18	0xc00bc7a0	-2.1840591
19	0x3f64b0de	0.8933238
20	0xbfe36c78	-1.7767477
21	0x3fcfe1fa	1.6240838
22	0xbeec3ef5	-0.46141782
23	0xbf3447e6	-0.7042221
24	0xbe5a972d	-0.21346731
25	0xc0033b64	-2.0505
26	0xbefa948d	-0.4894146
27	0x397c9f00	0.00024091825
28	0x3d95ffb3	0.073241614
29	0x3f0cd4ae	0.55012023
30	0xbfb618e3	-1.4226345
31	0xbfd1e73d	-1.6398693
32	0xbf2a777d	-0.66588575
33	0xbc84d3be	-0.016214248
34	0x4048f1ff	3.1397703
35	0x3f92d994	1.147265
36	0x3f7ea221	0.9946614
37	0x3e7bad17	0.24577747
38	0x3eb7bd57	0.35886642
39	0x3fa0f721	1.2575418
40	0xbdb60244	-0.08887151
41	0x3efe5f80	0.49682236
42	0x3e262e8f	0.16228698
43	0x3f0b00eb	0.54298276
44	0xbf1b76ed	-0.6072834
45	0xbf238d57	-0.6388754
46	0x3eba757f	0.36417767
47	0x3f5147e2	0.8175031
48	0xbf15b520	-0.584795
49	0x3fa03da4	1.2518811
50	0x3e94f2b7	0.29091427
51	0xbe43910a	-0.19098297
52	0xbf3ca2d6	-0.7368597
53	0x3f7d3644	0.9891093
54	0xbf5b5e8b	-0.85691136
55	0xbf354bdd	-0.70818883

Matern32_(4, 2, 7, 1)×(4, 2, 3, 1)→(4, 2, 7, 3)_y f4 [4, 2, 3, 1]
0	0x3f5e413e	0.868183
1	0x3f0b1fb7	0.5434527
2	0xbcc80d76	-0.024420481
3	0x3f98daea	1.1941807
4	0xbf5141aa	-0.8174082
5	0xc0002797	-2.0024164
6	0xbf739e08	-0.9516301
7	0xbef3ec9b	-0.47641453
8	0x3fd36f69	1.6518375
9	0xbf908e50	-1.129343
10	0x3ec35cf7	0.38156864
11	0xbff784a1	-1.933735
12	0xbf0b02cb	-0.54301137
13	0xbf38e546	-0.72224844
14	0xbf2034cc	-0.6258056
15	0xbf54c3fb	-0.8311154
16	0x3f7f1f14	0.99656796
17	0xbf0214fb	-0.50813264
18	0x3beb8794	0.007187793
19	0xbf187aad	-0.5956219
20	0x3f2a8098	0.6660247
21	0xbf8b4b70	-1.0882397
22	0x40525c7c	3.2868948
23	0xbf2e0d0f	-0.67988676

Matern32_(4, 2, 7, 1)×(4, 2, 3, 1)→(4, 2, 7, 3)_out f4 [4, 2, 7, 3]
0	0x3bfd48b8	0.007729616
1	0x3a050a86	0.00050751155
2	0x339e7797	7.3792016e-08
3	0x26d445c8	1.4729369e-15
4	0x2abfdd3c	3.4081928e-13
5	0x318f379a	4.168169e-09
6	0x323012e5	1.0248844e-08
7	0x3601e8ee	1.935808e-06
8	0x3bd8e3e9	0.006618966
9	0x386db00e	5.6669167e-05
10	0x34b848a2	3.4325518e-07
11	0x2e09dd2d	3.1346637e-11
12	0x29707154	5.3389e-14
13	0x2d541573	1.20555675e-11
14	0x3411c89d	1.357716e-07
15	0x398ef78c	0.00027268787
16	0x3c220dd3	0.009890991
17	0x36a8e66f	5.033616e-06
18	0x241dee11	3.4245598e-17
19	0x28119f9a	8.083725e-15
20	0x2ee72701	1.0511592e-10
21	0x378e6c67	1.6978198e-05
22	0x1f8893cd	5.7842756e-20
23	0x1102a8be	1.030719e-28
24	0x2e739326	5.5382497e-11
25	0x34e2ecf4	4.2268186e-07
26	0x26b9a782	1.2882357e-15
27	0x2e990b26	6.959615e-11
28	0x34b5d5e7	3.3869512e-07
29	0x26933beb	1.0216415e-15
30	0x31c3eec9	5.7023937e-09
31	0x3197033d	4.3950465e-09
32	0x235030f8	1.1286072e-17
33	0x3b52bc85	0.0032155823
34	0x23fa5fe6	2.7145669e-17
35	0x157c02b7	5.0893136e-26
36	0x13afc1d1	4.436733e-27
37	0x2c3600e6	2.5864254e-12
38	0x39f5be15	0.00046871664
39	0x26b120a3	1.2290688e-15
40	0x3bae182a	0.005312939
41	0x2e7f2048	5.800896e-11
42	0x25f4f8c3	4.249582e-16
43	0x2bac50db	1.2243777e-12
44	0x362ae156	2.5463137e-06
45	0x1cba99fc	1.2348252e-21
46	0x228e0120	3.849037e-18
47	0x3b551ff5	0.0032520269
48	0x3a96997a	0.0011489831
49	0x3561846c	8.401173e-07
50	0x1bbf5137	3.1650783e-22
51	0x2e5dec84	5.045965e-11
52	0x3403719d	1.2241658e-07
53	0x2dfbf5c0	2.8644531e-11
54	0x2f03c5e8	1.1984691e-10
55	0x2944a887	4.3666917e-14
56	0x0f3f4598	9.43043e-30
57	0x279d344d	4.363296e-15
58	0x2d5845c4	1.22936696e-11
59	0x349578e6	2.7841378e-07
60	0x33cc05d1	9.500548e-08
61	0x2e2b262e	3.891481e-11
62	0x1441c02c	9.781909e-27
63	0x1c8edd7f	9.454027e-22
64	0x2edf088d	1.0142385e-10
65	0x12ab66f3	1.0816996e-27
66	0x359f8719	1.1885742e-06
67	0x3398bebe	7.1127474e-08
68	0x2c1ce27f	2.2294664e-12
69	0x385e6e09	5.3031403e-05
70	0x30b916ca	1.3466999e-09
71	0x2f0a4952	1.2577075e-10
72	0x32bade28	2.1754275e-08
73	0x367d956b	3.778691e-06
74	0x291f2ae1	3.5342284e-14
75	0x32ab754b	1.9960359e-08
76	0x20813520	2.1888605e-19
77	0x3b830fdf	0.0039996947
78	0x35f91593	1.8558225e-06
79	0x3341f398	4.515786e-08
80	0x2c7a201f	3.5544968e-12
81	0x30340415	6.548942e-10
82	0x38d7eb9c	0.000102958846
83	0x268cd853	9.773086e-16
84	0x36354e8d	2.7016824e-06
85	0x3424b2b3	1.53387e-07
86	0x3542166b	7.2303254e-07
87	0x30a40963	1.1935238e-09
88	0x2e8809fc	6.1863376e-11
89	0x2fa7a3af	3.0493427e-10
90	0x33288c55	3.924318e-08
91	0x353df95a	7.077084e-07
92	0x34212cdb	1.5010612e-07
93	0x309a4808	1.1225447e-09
94	0x32b5a0ff	2.1144386e-08
95	0x319638c2	4.372027e-09
96	0x3b740f28	0.003724048
97	0x3bf3f564	0.0074450243
98	0x3c0aa471	0.008462057
99	0x37391a8e	1.1033042e-05
100	0x352d8d86	6.4653466e-07
101	0x36497841	3.002133e-06
102	0x1122e133	1.2848942e-28
103	0x0ef4f508	6.03866e-30
104	0x101eb92f	3.1302666e-29
105	0x260573f7	4.6300806e-16
106	0x3b2df3f7	0.002654312
107	0x29ebdb48	1.0474136e-13
108	0x27d8ede5	6.020997e-15
109	0x3c23c0ab	0.009994666
110	0x2bbcc413	1.3412625e-12
111	0x30d63fdc	1.5588699e-09
112	0x34a93fea	3.1525207e-07
113	0x34a0f73d	2.9982212e-07
114	0x2f84e984	2.4176583e-10
115	0x360106cd	1.9226457e-06
116	0x334eeace	4.8176666e-08
117	0x24a6a5fa	7.22722e-17
118	0x3a1d8ad6	0.0006009763
119	0x2894b050	1.6507764e-14
120	0x34c22db9	3.6168584e-07
121	0x30ba2951	1.3545024e-09
122	0x387333fa	5.798412e-05
123	0x2dd884e2	2.4615369e-11
124	0x378d062e	1.6811387e-05
125	0x31ae6623	5.075678e-09
126	0x3b249633	0.002511394
127	0x3496ef3a	2.8113737e-07
128	0x37848b85	1.5800595e-05
129	0x3720d45a	9.586185e-06
130	0x301b2583	5.644198e-10
131	0x3b7393e5	0.003716701
132	0x363a7ebc	2.778993e-06
133	0x3c20ea64	0.009821508
134	0x2e85f029	6.090801e-11
135	0x35e1f1c0	1.6834165e-06
136	0x3c077c23	0.008269343
137	0x2e1eaa14	3.60761e-11
138	0x391b7165	0.00014824195
139	0x323686b3	1.0624421e-08
140	0x39af22be	0.00033404486
141	0x34019d1b	1.2071216e-07
142	0x2cd237f4	5.974771e-12
143	0x3b2c4204	0.0026284466
144	0x36850d55	3.965261e-06
145	0x3c214b93	0.009844678
146	0x2ec262e5	8.839666e-11
147	0x2198f1f3	1.0363964e-18
148	0x254dba9b	1.784414e-16
149	0x26922c62	1.0142815e-15
150	0x2d38f0a5	1.0512623e-11
151	0x1994c4ce	1.538233e-23
152	0x32187d4f	8.876056e-09
153	0x32fd0c8f	2.9458787e-08
154	0x13a75505	4.2240563e-27
155	0x37a6d8da	1.9889721e-05
156	0x3928fcd6	0.00016115917
157	0x0cf7d50c	3.8184599e-31
158	0x3bf2af46	0.007406148
159	0x24c9a2e4	8.74458e-17
160	0x221c6515	2.1195455e-18
161	0x29bbd760	8.34183e-14
162	0x3a6ec756	0.0009108683
163	0x0b7f2573	4.9139387e-32
164	0x3af85bd3	0.0018948264
165	0x38dc1b57	0.0001049551
166	0x0d4a2dc7	6.230116e-31
167	0x3c158b90	0.009127513

Matern52_(4, 1)×(6, 1)→(4, 6)_x f4 [4, 1]
0	0xbf83bb8d	-1.0291611
1	0xbea316c3	-0.31853303
2	0x40022679	2.0335982
3	0x3f11cf0a	0.5695654

Matern52_(4, 1)×(6, 1)→(4, 6)_y f4 [6, 1]
0	0x3db1c39c	0.08679888
1	0x3fa1c296	1.2637508
2	0xbfb97b3a	-1.4490731
3	0x3e4701e9	0.19434322
4	0x3f1bf7a9	0.60924774
5	0x3f068244	0.5254252

Matern52_(4, 1)×(6, 1)→(4, 6)_out f4 [4, 6]
0	0x2e156694	3.3969785e-11
1	0x1c17d6c9	5.023931e-22
2	0x380b7826	3.325208e-05
3	0x2c80667e	3.6493577e-12
4	0x262baeb9	5.9564336e-16
5	0x277ce2f0	3.5095048e-15
6	0x3835e6d5	4.3368742e-05
7	0x270cd105	1.9542213e-15
8	0x2ddd03e6	2.5126522e-11
9	0x36c591fa	5.8880514e-06
10	0x30ddffdf	1.6152589e-09
11	0x3217afe7	8.829352e-09
12	0x21780938	8.403787e-19
13	0x3327e4d3	3.9090832e-08
14	0x0983dba8	3.1743667e-33
15	0x2319dbcb	8.34069e-18
16	0x2975f694	5.46148e-14
17	0x28286a8b	9.348976e-15
18	0x372e2e52	1.0381993e-05
19	0x343ca339	1.7568244e-07
20	0x20557c70	1.8082975e-19
21	0x389c7667	7.460714e-05
22	0x3c110737	0.008851818
23	0x3c0d2886	0.008615619

Matern52_(2, 7, 4)×(2, 3, 4)→(2, 7, 3)_x f4 [2, 7, 4]
0	0xbeeae2be	-0.45876116
1	0xbfe8f9f4	-1.820128
2	0x3dc11914	0.094286114
3	0xbf94ec44	-1.1634603
4	0x3f1543c3	0.5830652
5	0x3f52aae4	0.8229201
6	0xbf9fed37	-1.2494267
7	0x3ef453e3	0.4772025
8	0x3ec53fff	0.38525388
9	0x3f200929	0.6251398
10	0x3f7c149c	0.9846895
11	0x3e5abd48	0.21361268
12	0x3e870a33	0.2637497
13	0xbe835ba8	-0.25655866
14	0x3f050ea2	0.5197545
15	0xbf9352a1	-1.1509591
16	0x3e84d10c	0.2594074
17	0xc024618b	-2.5684536
18	0xc02fe678	-2.7484417
19	0xbf2bc6aa	-0.6710001
20	0xbfb2556c	-1.3932319
21	0x3dad6f88	0.084685385
22	0xbe22c51f	-0.15895508
23	0x3f092a21	0.5357991
24	0xbe9c2ed0	-0.30504465
25	0x3f7a7460	0.97833824
26	0xbe91acb6	-0.2845208
27	0xbf72fb5d	-0.949148
28	0x3ede6a88	0.43440652
29	0xbf3ff368	-0.74980783
30	0x3f2623b1	0.6489821
31	0x3f2363dd	0.63824254
32	0xbeb4fb3b	-0.35347924
33	0xbe3a3c30	-0.18187022
34	0xbf8fde57	-1.1239728
35	0xbe605d40	-0.21910572
36	0xbf4a6b31	-0.7906981
37	0x4013a9b6	2.3072333
38	0xbcbd1ae3	-0.02308411
39	0xbcf88bd3	-0.03034011
40	0xbe9f9c63	-0.31174
41	0xbf4e2053	-0.8051807
42	0x3d66d0bf	0.05635142
43	0xbd904834	-0.07045022
44	0x3fc22a1d	1.5169102
45	0x3eeeebbe	0.46664232
46	0xbf6acd17	-0.9171919
47	0x3f00b8c0	0.50281906
48	0x3abde30e	0.0014487223
49	0x3ea015ce	0.31266636
50	0x3e5bd434	0.21467668
51	0xbead11ae	-0.3380255
52	0x3e1226b6	0.1427258
53	0x3e2b2bbe	0.16715905
54	0x3f849246	1.0357139
55	0x3dbffc43	0.09374287

Matern52_(2, 7, 4)×(2, 3, 4)→(2, 7, 3)_y f4 [2, 3, 4]
0	0x3fc95729	1.5729724
1	0xbf24e427	-0.6441063
2	0xbf83d679	-1.0299827
3	0x3f20eb66	0.6285919
4	0x3f934177	1.1504353
5	0x3dbf4e12	0.093410626
6	0xbdb63f4c	-0.08898792
7	0x3fcd1267	1.6021241
8	0xbed75ffa	-0.42065412
9	0x3fa478e2	1.284939
10	0x3ef7f4ed	0.4842905
11	0x3cb5e499	0.02220373
12	0xbe841ba1	-0.2580233
13	0x3e50ee64	0.20403439
14	0x3e822322	0.2541743
15	0x3f39c3e7	0.7256455
16	0x3f5145f2	0.81747353
17	0xbf86f221	-1.0542642
18	0x3f520910	0.8204508
19	0xbf3dc0d9	-0.7412239
20	0x3f04a2c0	0.51810837
21	0x3f0f8ea3	0.5607702
22	0x3f00609b	0.5014741
23	0xbe7564fa	-0.23964301

Matern52_(2, 7, 4)×(2, 3, 4)→(2, 7, 3)_out f4 [2, 7, 3]
0	0x00000000	0.0
1	0x00000000	0.0
2	0x00000000	0.0
3	0x13bf883e	4.8349524e-27
4	0x07f09e9b	3.6204406e-34
5	0x06c7202c	7.490275e-35
6	0x00000000	0.0
7	0x05223604	7.6271245e-36
8	0x1e2e1b26	9.2170975e-21
9	0x00000000	0.0
10	0x00000000	0.0
11	0x0a3c4066	9.063983e-33
12	0x00000000	0.0
13	0x00000000	0.0
14	0x00000000	0.0
15	0x00000000	0.0
16	0x063caa4b	3.5483982e-35
17	0x0be6f291	8.895775e-32
18	0x00000000	0.0
19	0x00000000	0.0
20	0x1e1cddab	8.304411e-21
21	0x1ea24c6c	1.7184025e-20
22	0x1cf4d7f1	1.6202385e-21
23	0x1a1e77b0	3.2770317e-23
24	0x141f6039	8.046425e-27
25	0x00000000	0.0
26	0x0d02ec8b	4.034407e-31
27	0x06909765	5.4389234e-35
28	0x00000000	0.0
29	0x04a85eb7	3.9583592e-36
30	0x1fbc66b4	7.9791005e-20
31	0x14036503	6.633731e-27
32	0x140c62d4	7.087684e-27
33	0x0a4811f1	9.633024e-33
34	0x00000000	0.0
35	0x0d15af18	4.612493e-31
36	0x28b74877	2.0348508e-14
37	0x0e109121	1.7819247e-30
38	0x2d93e3f3	1.6813195e-11
39	0x22ef3a43	6.4842767e-18
40	0x11e9fab1	3.6915419e-28
41	0x26325110	6.1866016e-16

Matern52_(4, 2, 7, 1)×(4, 2, 3, 1)→(4, 2, 7, 3)_x f4 [4, 2, 7, 1]
0	0x3f1fa5a2	0.6236211
1	0xbf0a2ded	-0.5397633
2	0x3e0af75b	0.13570921
3	0xbfcbcaef	-1.5921305
4	0xbe58721e	-0.21137282
5	0x3e9cbbf6	0.30612153
6	0x3f290b0f	0.660325
7	0xbf4ff12a	-0.8122736
8	0x40014519	2.0198424
9	0x3f40524f	0.7512559
10	0xbfe55c23	-1.7918743
11	0xbfaba403	-1.3409427
12	0xbeba41cb	-0.3637832
13	0x3edd704f	0.43249747
14	0xbf661c5c	-0.8988702
15	0xbf982b8e	-1.1888292
16	0x3e791c48	0.24327195
17	0x3eb9bd51	0.3627725
18	0x3ed54b62	0.41659075
19	0x3efc5a95	0.4928786
20	0xbee8f2b0	-0.45497656
21	0xbf3f7bdd	-0.74798375
22	0x3fe063e7	1.7530488
23	0xbffab5fa	-1.9586785
24	0x3e0dc02f	0.13842843
25	0x3f785416	0.97003305
26	0xbe88413b	-0.26612267
27	0xbed23839	-0.4105852
28	0xc00b2011	-2.1738322
29	0x3fd2abd4	1.6458688
30	0xc0038fc8	-2.0556507
31	0xbf646555	-0.8921712
32	0x3f57f18a	0.84352934
33	0xbf209bbf	-0.6273765
34	0xc01af6c4	-2.4213114
35	0xbf20bf53	-0.6279194
36	0xbf0f5bf2	-0.5599967
37	0x3f8a6c2c	1.0814261
38	0x3f2304e9	0.6367937
39	0xbf95761b	-1.1676668
40	0xbf89387d	-1.0720364
41	0xbffdbec0	-1.9823837
42	0x3fafae52	1.3725073
43	0xbfb199cd	-1.3875061
44	0x401a917b	2.4151294
45	0xc00019b7	-2.0015695
46	0x3fa2da9e	1.2722967
47	0x3f3beff5	0.7341302
48	0xbc711e61	-0.014716716
49	0x3f415174	0.7551491
50	0x3f0e5c80	0.55609894
51	0xbf34dd55	-0.70650226
52	0xbf3c7151	-0.7361041
53	0x401a67e9	2.4125922
54	0x3f0f8ff2	0.5607902
55	0xbf5ddeb0	-0.8666792

Matern52_(4, 2, 7, 1)×(4, 2, 3, 1)→(4, 2, 7, 3)_y f4 [4, 2, 3, 1]
0	0x3ec59559	0.38590506
1	0x3eb2b45f	0.34903237
2	0xbeb5099e	-0.353589
3	0xbf9046d0	-1.127161
4	0x3f2aa954	0.66664624
5	0x3fc0d88f	1.5066088
6	0xc007d534	-2.122388
7	0x3f61b704	0.88169885
8	0xbdf11ae3	-0.11772706
9	0x3ec92e6d	0.39293233
10	0x3f8769f4	1.0579209
11	0x3f4dbf2c	0.8036983
12	0xbe48f9aa	-0.1962649
13	0x3f25debf	0.6479301
14	0x3f7218b7	0.9456896
15	0x3dba2d4e	0.090906724
16	0x3fbc80a9	1.4726764
17	0xbb938e63	-0.004503058
18	0x3b1ba6a7	0.0023750456
19	0x3f10f52f	0.5662412
20	0xbe74de0b	-0.23912828
21	0x3e9ee697	0.310353
22	0xbeb13103	-0.34607705
23	0xbf39e33c	-0.7261236

Matern52_(4, 2, 7, 1)×(4, 2, 3, 1)→(4, 2, 7, 3)_out f4 [4, 2, 7, 3]
0	0x3a4ab65c	0.0007732862
1	0x39dea563	0.00042466362
2	0x3021f76f	5.8923083e-10
3	0x30e7c067	1.6862146e-09
4	0x31750b54	3.5658632e-09
5	0x3adf2154	0.0017023482
6	0x3a25f664	0.00063309656
7	0x3a946ee8	0.0011324557
8	0x371a175f	9.184557e-06
9	0x20fe6e53	4.310228e-19
10	0x218be3e0	9.479324e-19
11	0x2c3bc470	2.6683343e-12
12	0x359ceda9	1.1692074e-06
13	0x361fb55a	2.3798407e-06
14	0x3b4dc7bb	0.0031399566
15	0x3bd39dcd	0.0064580203
16	0x3c0e3f69	0.00868211
17	0x34b9e265	3.462366e-07
18	0x39df451c	0.00042585365
19	0x396fc89a	0.00022867546
20	0x2f98c036	2.7785213e-10
21	0x396171a9	0.00021500014
22	0x289c0392	1.7321028e-14
23	0x1badaa94	2.8730683e-22
24	0x0ebff9d4	4.732571e-30
25	0x2a88e11c	2.4314654e-13
26	0x36c43d21	5.8483715e-06
27	0x22858173	3.618678e-18
28	0x3bc9d574	0.006159479
29	0x33603532	5.2202445e-08
30	0x34a88040	3.1385753e-07
31	0x19892562	1.4180567e-23
32	0x0c63b260	1.7541122e-31
33	0x3a936416	0.0011245038
34	0x2087379b	2.2906686e-19
35	0x13797e11	3.1490374e-27
36	0x333f0ba7	4.448125e-08
37	0x2f59a98b	1.9796269e-10
38	0x229e6e86	4.2943007e-18
39	0x27632f58	3.1528243e-15
40	0x3a56844c	0.0008183166
41	0x2eb13424	8.05829e-11
42	0x2c805d65	3.6483477e-12
43	0x2406387c	2.9104462e-17
44	0x3305f49b	3.1188943e-08
45	0x30c55cc6	1.4360004e-09
46	0x1f8c8cfa	5.952553e-20
47	0x2ebc8a74	8.5738444e-11
48	0x1afdbb7d	1.0494125e-22
49	0x350cfb1d	5.251948e-07
50	0x38c98ad7	9.610288e-05
51	0x191a6401	7.981809e-24
52	0x36b02ca4	5.2504056e-06
53	0x3735bcce	1.08324e-05
54	0x184145a1	2.4979819e-24
55	0x377241b9	1.4439626e-05
56	0x36837de4	3.91876e-06
57	0x1714bec0	4.806214e-25
58	0x38752f85	5.8456808e-05
59	0x357261ae	9.029417e-07
60	0x25b9ac55	3.220916e-16
61	0x2ac178cc	3.4367507e-13
62	0x39190b9f	0.00014595546
63	0x2db24c0e	2.0270032e-11
64	0x239c8b4c	1.6972548e-17
65	0x278671f0	3.7316003e-15
66	0x2a6ccceb	2.1032106e-13
67	0x34392905	1.724439e-07
68	0x308f0ce9	1.0408289e-09
69	0x1b2bb0bd	1.4201896e-22
70	0x10cbf3e2	8.044514e-29
71	0x14c56738	1.9932629e-26
72	0x3a1ac80a	0.0005904442
73	0x31036354	1.911947e-09
74	0x34a6ab60	3.10446e-07
75	0x35e7b669	1.726393e-06
76	0x3bc342e2	0.005958901
77	0x3b14486f	0.0022626182
78	0x34bc4a3a	3.5071736e-07
79	0x2afc060e	4.4768394e-13
80	0x2ec19563	8.80316e-11
81	0x32ab1c92	1.9920012e-08
82	0x28c24752	2.1569257e-14
83	0x2c9b8e82	4.4211865e-12
84	0x21007eea	4.3536056e-19
85	0x13da2617	5.5068496e-27
86	0x0f2e6fbb	8.600381e-30
87	0x2310b3be	7.8443175e-18
88	0x2fd3efc7	3.8551048e-10
89	0x342793ee	1.5606904e-07
90	0x22c85843	5.430356e-18
91	0x15b035f2	7.1170945e-26
92	0x110e0720	1.120402e-28
93	0x34365606	1.6981366e-07
94	0x27abb397	4.7656746e-15
95	0x231e7f9c	8.5922195e-18
96	0x2f338f9a	1.6330973e-10
97	0x3ac21e8f	0.0014810133
98	0x3ba7a574	0.005116159
99	0x37e32ec5	2.7082287e-05
100	0x2bae7867	1.2396862e-12
101	0x272b1ef8	2.3747805e-15
102	0x1d2351bc	2.1615126e-21
103	0x100207c4	2.5643962e-29
104	0x0b4ce5a6	3.946174e-32
105	0x33e7b915	1.0790442e-07
106	0x1f13920a	3.124926e-20
107	0x353ceed9	7.0383027e-07
108	0x34dce850	4.1147223e-07
109	0x201e16db	1.3390683e-19
110	0x362f7a98	2.614839e-06
111	0x2ff6b685	4.4876827e-10
112	0x386aaed1	5.5952758e-05
113	0x2e8ae1e6	6.315641e-11
114	0x3652e4a9	3.1425536e-06
115	0x32328156	1.0390371e-08
116	0x35054af6	4.9655443e-07
117	0x2bf75c94	1.7576101e-12
118	0x16acfe84	2.794872e-25
119	0x2d60e27b	1.2783215e-11
120	0x2d61ea68	1.2841818e-11
121	0x182ac309	2.2070453e-24
122	0x2ecaecea	9.227981e-11
123	0x1f847915	5.610449e-20
124	0x09f0b134	5.794454e-33
125	0x20ff466e	4.3245287e-19
126	0x2a3ff320	1.7048559e-13
127	0x32a1ed62	1.8850816e-08
128	0x26975788	1.0501455e-15
129	0x29fdad41	1.1265512e-13
130	0x2155cff3	7.2442426e-19
131	0x2d98c3f5	1.7367422e-11
132	0x1a37f4d8	3.8041296e-23
133	0x22fa994e	6.7924953e-18
134	0x16800b05	2.068647e-25
135	0x20922e9f	2.4764213e-19
136	0x17cf6096	1.3401443e-24
137	0x244560f0	4.2799675e-17
138	0x2bc33886	1.3871272e-12
139	0x3415328d	1.3895097e-07
140	0x281d404d	8.729194e-15
141	0x33b349e0	8.348775e-08
142	0x3b111497	0.0022137517
143	0x302f9835	6.388093e-10
144	0x3c1ff87f	0.009763836
145	0x35d71be0	1.6026861e-06
146	0x3a7a02ce	0.0009537161
147	0x37b08e60	2.1047133e-05
148	0x2e4a9037	4.605757e-11
149	0x289477ee	1.6483312e-14
150	0x3a324b67	0.0006801397
151	0x313acb1e	2.718202e-09
152	0x2b9703c8	1.0730245e-12
153	0x2f8fce71	2.6158234e-10
154	0x38cb9a39	9.7085205e-05
155	0x3c1ec8df	0.009691446
156	0x2f1c9285	1.4240172e-10
157	0x386fe9fd	5.719996e-05
158	0x3c227ebb	0.00991791
159	0x1f0e7617	3.016735e-20
160	0x14d5e7a3	2.1598868e-26
161	0x0ee5df5e	5.6667953e-30
162	0x3a255123	0.0006306341
163	0x3129d228	2.4712197e-09
164	0x2b88ec28	9.728928e-13
165	0x2d28a8a2	9.587138e-12
166	0x36aaa9b8	5.0861527e-06
167	0x3b524d14	0.00320894

SquaredExponential_(4, 1)×(6, 1)→(4, 6)_x f4 [4, 1]
0	0x3e1f2f97	0.15545498
1	0xbff0296e	-1.8762643
2	0x3ebbdebb	0.36693367
3	0x3fe6b116	1.8022792

SquaredExponential_(4, 1)×(6, 1)→(4, 6)_y f4 [6, 1]
0	0x3e5ad835	0.21371539
1	0xbcd95ea0	-0.026534379
2	0xbfa2c991	-1.2717763
3	0xbf946535	-1.1593386
4	0x3ff6f75f	1.9294242
5	0xbff4cd90	-1.9125233

SquaredExponential_(4, 1)×(6, 1)→(4, 6)_out f4 [4, 6]
0	0x3dacd4ff	0.08439063
1	0x3c9c629a	0.019089986
2	0x00000000	0.0
3	0x00000000	0.0
4	0x00000000	0.0
5	0x00000000	0.0
6	0x00000000	0.0
7	0x00000000	0.0
8	0x309fbe87	1.1622924e-09
9	0x2b424a74	6.902597e-13
10	0x00000000	0.0
11	0x3dbfc533	0.09363785
12	0x3cfd4a4f	0.030919222
13	0x38365385	4.3469965e-05
14	0x00000000	0.0
15	0x00000000	0.0
16	0x00000000	0.0
17	0x00000000	0.0
18	0x00000000	0.0
19	0x00000000	0.0
20	0x00000000	0.0
21	0x00000000	0.0
22	0x3d368682	0.04456187
23	0x00000000	0.0

SquaredExponential_(2, 7, 4)×(2, 3, 4)→(2, 7, 3)_x f4 [2, 7, 4]
0	0xc0414bd6	-3.0202537
1	0xbdc88e4b	-0.09792765
2	0x3f9c3558	1.2203779
3	0xbdca96bc	-0.098920316
4	0x3f27459b	0.65340585
5	0xbf23e4ec	-0.6402118
6	0xbf702c18	-0.9381728
7	0xbf32e6cc	-0.6988342
8	0x3e270b8b	0.16312997
9	0xbe99196e	-0.29902214
10	0xbe930dd5	-0.2872149
11	0xbeefb019	-0.4681404
12	0xbfd5588f	-1.6667651
13	0xbf89dd1a	-1.07706
14	0x404104dd	3.0159218
15	0xbed581c9	-0.4170058
16	0xbf42cd80	-0.7609482
17	0x3d85134c	0.06497821
18	0xbe8d8ba8	-0.27645612
19	0x3f1e1cd2	0.61762726
20	0xbe5b24a0	-0.2140069
21	0x3eb50c19	0.35360792
22	0x3f2fb97f	0.6864242
23	0xbf69093f	-0.91029733
24	0x3f449fcc	0.7680633
25	0xbeb4b549	-0.3529456
26	0xbfbd5e3f	-1.4794387
27	0x3e6955ec	0.22786683
28	0x3f6d34cf	0.92658705
29	0xbf4f248d	-0.8091515
30	0xbf88e50f	-1.0694903
31	0x3f2b5d2b	0.6693904
32	0x3e99341e	0.29922575
33	0x3e3fc18d	0.18726178
34	0x3f563c83	0.83686084
35	0xbe2cda74	-0.16880208
36	0xbdf44ea8	-0.11929065
37	0xbeb5677b	-0.35430512
38	0x3f935bf2	1.1512434
39	0xbf09bf90	-0.53807926
40	0xbf7093af	-0.9397535
41	0xbef3926c	-0.4757265
42	0xbfc7728d	-1.5581833
43	0x3eea96c0	0.45818138
44	0x3fe5b4ed	1.7945839
45	0xbf12c5c7	-0.57333034
46	0xbfc1aeda	-1.5131485
47	0x40040d07	2.0632951
48	0x3f7c899d	0.9864748
49	0x3c7ac451	0.015305595
50	0x3f04d623	0.51889247
51	0xbf55b688	-0.83481646
52	0xbeef0bbb	-0.46688637
53	0x3f5a7e8e	0.8534936
54	0x3e93bfae	0.28857177
55	0x3ee5108b	0.44739184

SquaredExponential_(2, 7, 4)×(2, 3, 4)→(2, 7, 3)_y f4 [2, 3, 4]
0	0xc0354925	-2.8325894
1	0xbf2f06c0	-0.68369675
2	0xbf2c795d	-0.67372686
3	0xbf06c1df	-0.52639574
4	0x3ec856ad	0.39128628
5	0x3d05e06a	0.03268472
6	0x3febab96	1.8411739
7	0x3fe4d589	1.7877666
8	0xbefc12b7	-0.49233028
9	0xbbae3300	-0.0053161383
10	0x3f895091	1.0727712
11	0xbedbaefe	-0.42906946
12	0x3f5b4b63	0.85661906
13	0xbf81003d	-1.0078198
14	0x3d4f3f20	0.05059731
15	0xbf43de31	-0.7651091
16	0xbf28d03a	-0.6594273
17	0x3e1a848f	0.1508963
18	0x3bc09545	0.0058771693
19	0x3e1a1ee9	0.15050854
20	0x3fac36cd	1.3454224
21	0x3f874338	1.0567389
22	0x3fb96a18	1.4485502
23	0x3c0486a4	0.008088741

SquaredExponential_(2, 7, 4)×(2, 3, 4)→(2, 7, 3)_out f4 [2, 7, 3]
0	0x00000000	0.0
1	0x00000000	0.0
2	0x00000000	0.0
3	0x00000000	0.0
4	0x00000000	0.0
5	0x00000000	0.0
6	0x00000000	0.0
7	0x00000000	0.0
8	0x00000000	0.0
9	0x00000000	0.0
10	0x00000000	0.0
11	0x00000000	0.0
12	0x00000000	0.0
13	0x00000000	0.0
14	0x00000000	0.0
15	0x00000000	0.0
16	0x00000000	0.0
17	0x28a05ebd	1.7804655e-14
18	0x00000000	0.0
19	0x00000000	0.0
20	0x00000000	0.0
21	0x00000000	0.0
22	0x00000000	0.0
23	0x00000000	0.0
24	0x00000000	0.0
25	0x00000000	0.0
26	0x00000000	0.0
27	0x00000000	0.0
28	0x00000000	0.0
29	0x00000000	0.0
30	0x00000000	0.0
31	0x00000000	0.0
32	0x00000000	0.0
33	0x00000000	0.0
34	0x00000000	0.0
35	0x00000000	0.0
36	0x0f5c289f	1.0854661e-29
37	0x00000000	0.0
38	0x00000000	0.0
39	0x00000000	0.0
40	0x249a9a2a	6.704802e-17
41	0x00000000	0.0

SquaredExponential_(4, 2, 7, 1)×(4, 2, 3, 1)→(4, 2, 7, 3)_x f4 [4, 2, 7, 1]
0	0x3fa2745d	1.2691761
1	0xbf815501	-1.0104066
2	0x3d95a3cd	0.07306633
3	0x3ff81626	1.9381759
4	0xbcd01daf	-0.02540478
5	0xbef1026b	-0.47072157
6	0x3df4d8f3	0.11955442
7	0xbf0bcff6	-0.546142
8	0x3f3fabcf	0.74871534
9	0x3f757058	0.9587455
10	0xbb9e2696	-0.004826377
11	0x3f8f2e30	1.118597
12	0xbe52cf99	-0.20587005
13	0xbf98be23	-1.1933025
14	0xbe55e256	-0.20887122
15	0x3efccfda	0.49377328
16	0xbfaa39cd	-1.3298889
17	0x3f2456ed	0.6419514
18	0xbf68754e	-0.9080399
19	0xbf513737	-0.81724876
20	0xbe32ee1f	-0.17473648
21	0x3fd8f0db	1.6948503
22	0xbf312f3d	-0.69212705
23	0x3e6519b2	0.22373083
24	0x3f0ae835	0.5426057
25	0xbffb81e2	-1.9649012
26	0x3fce0903	1.60965
27	0xbdc36980	-0.09541607
28	0x3f9d1e84	1.2274938
29	0x3f5fd972	0.8744117
30	0x3ea32305	0.31862655
31	0x3eccd4ca	0.40006095
32	0xbfb4324d	-1.407785
33	0xbe35031d	-0.17676969
34	0xbfa97ae7	-1.3240632
35	0xbed19020	-0.4093027
36	0x3faf79f7	1.3709096
37	0xbfb99951	-1.4499913
38	0x3de73236	0.11288874
39	0xbf8a8707	-1.0822457
40	0xbe4f541d	-0.2024693
41	0x3e4988e3	0.19681124
42	0xbc4e99b0	-0.012609884
43	0x3ee8b0c9	0.45447376
44	0x3efb1886	0.49042147
45	0x3f1f45ae	0.622157
46	0x3f1676aa	0.58774817
47	0xbede2796	-0.43389577
48	0x3fae01d2	1.3594306
49	0xbe74889b	-0.23880236
50	0xbece909f	-0.40344712
51	0x3f21f827	0.63269275
52	0x3c3064d7	0.01076623
53	0xbf282ba9	-0.6569162
54	0xbe72a450	-0.23695493
55	0xbf6a5aab	-0.915446

SquaredExponential_(4, 2, 7, 1)×(4, 2, 3, 1)→(4, 2, 7, 3)_y f4 [4, 2, 3, 1]
0	0x3fe3bcd3	1.7792
1	0x3f1ca32e	0.6118649
2	0xbf9176c2	-1.1364367
3	0x3f7bae74	0.9831307
4	0x3e8e22e9	0.2776101
5	0x3f33f013	0.702882
6	0xbf53ec67	-0.82782596
7	0xbf70ce94	-0.94065213
8	0x3f0725f3	0.5279228
9	0x3ed04db5	0.40684286
10	0xbf0b36ee	-0.5438069
11	0xbe58aa96	-0.21158823
12	0x3f3a4bb0	0.7277174
13	0xbf5ea5a1	-0.8697148
14	0xbf9324fb	-1.149566
15	0xbfff3091	-1.9936696
16	0xbf1d71b4	-0.6150162
17	0xbe9fd43a	-0.31216604
18	0x3f420f43	0.7580454
19	0xbfda0de9	-1.7035495
20	0xbf655319	-0.8957992
21	0x3f0ab22e	0.5417813
22	0xbec26edc	-0.37975204
23	0xbeb45642	-0.3522206

SquaredExponential_(4, 2, 7, 1)×(4, 2, 3, 1)→(4, 2, 7, 3)_out f4 [4, 2, 7, 3]
0	0x34713282	2.2463249e-07
1	0x2e367d6d	4.149341e-11
2	0x00000000	0.0
3	0x00000000	0.0
4	0x00000000	0.0
5	0x3d391e9c	0.045195207
6	0x00000000	0.0
7	0x3355595f	4.967421e-08
8	0x090e40b7	1.7123057e-33
9	0x3ce784c7	0.028261555
10	0x00000000	0.0
11	0x00000000	0.0
12	0x00000000	0.0
13	0x2f26f219	1.5183622e-10
14	0x1146d8db	1.568627e-28
15	0x00000000	0.0
16	0x138cb68b	3.552097e-27
17	0x2dd154a3	2.3798135e-11
18	0x00000000	0.0
19	0x3512811f	5.4577134e-07
20	0x04ec4eb2	5.5555604e-36
21	0x00000000	0.0
22	0x255445f3	1.8411769e-16
23	0x058d6261	1.3295715e-35
24	0x3bd1ff53	0.006408611
25	0x35cb7128	1.5157611e-06
26	0x3db8614b	0.09002932
27	0x3dc6ccef	0.09707057
28	0x2d143548	8.424657e-12
29	0x3b7841c2	0.0037880992
30	0x1a9a6000	6.3848004e-23
31	0x3af2d6d2	0.0018527156
32	0x2bbb4fdf	1.3309318e-12
33	0x3d23a1fd	0.039949406
34	0x244a4477	4.385976e-17
35	0x37943e22	1.7671908e-05
36	0x0acfdeab	2.0017133e-32
37	0x356166bd	8.3968536e-07
38	0x2009db24	1.1676859e-19
39	0x00000000	0.0
40	0x00000000	0.0
41	0x00000000	0.0
42	0x3003dcc8	4.797127e-10
43	0x2a847c03	2.353396e-13
44	0x2a375e9a	1.6286487e-13
45	0x00000000	0.0
46	0x00000000	0.0
47	0x3dc13320	0.094335794
48	0x34b46d13	3.3606975e-07
49	0x38572952	5.1298477e-05
50	0x00000000	0.0
51	0x00000000	0.0
52	0x00000000	0.0
53	0x3d55cd95	0.05219801
54	0x3d9475ed	0.07249055
55	0x3dc23197	0.09482115
56	0x00000000	0.0
57	0x3dcba857	0.09944218
58	0x3d3f48d0	0.0467003
59	0x00000000	0.0
60	0x2e70a3df	5.471523e-11
61	0x28a47ea7	1.8262584e-14
62	0x2c05b5f4	1.900144e-12
63	0x0200d110	9.463953e-38
64	0x00000000	0.0
65	0x00000000	0.0
66	0x123c7fc4	5.9479823e-28
67	0x3d085a0c	0.033289
68	0x3581de00	9.67586e-07
69	0x3c993678	0.01870273
70	0x289141fd	1.6126852e-14
71	0x3700be0d	7.673644e-06
72	0x3d22f9e3	0.03978909
73	0x1339d8f4	2.3457249e-27
74	0x2948777a	4.451255e-14
75	0x00000000	0.0
76	0x00000000	0.0
77	0x00000000	0.0
78	0x099f81eb	3.8400032e-33
79	0x00000000	0.0
80	0x00000000	0.0
81	0x34b2a8ef	3.3278e-07
82	0x369083a7	4.306861e-06
83	0x3d5097ad	0.0509259
84	0x34ca5284	3.768547e-07
85	0x00000000	0.0
86	0x00000000	0.0
87	0x3d0ba94b	0.034096997
88	0x00000000	0.0
89	0x00000000	0.0
90	0x37c2cfcf	2.322337e-05
91	0x0ae0d145	2.1649134e-32
92	0x00000000	0.0
93	0x39f483b0	0.00046637421
94	0x03a5c459	9.742908e-37
95	0x00000000	0.0
96	0x00000000	0.0
97	0x335de1bf	5.1660887e-08
98	0x3b69abf3	0.0035655468
99	0x204aef03	1.7189148e-19
100	0x2c83aeaa	3.7426355e-12
101	0x1baa9d55	2.8225814e-22
102	0x00000000	0.0
103	0x365ce14a	3.291369e-06
104	0x3cb2ba67	0.0218174
105	0x00000000	0.0
106	0x3c4577a1	0.012052448
107	0x3d7f8be7	0.06238928
108	0x00000000	0.0
109	0x00000000	0.0
110	0x00000000	0.0
111	0x3323d423	3.8144332e-08
112	0x24a75f1f	7.2585847e-17
113	0x0f1c664c	7.7110955e-30
114	0x00000000	0.0
115	0x2aafcca9	3.1228256e-13
116	0x374835d7	1.19334645e-05
117	0x1fd83262	9.156291e-20
118	0x35f4033d	1.8180359e-06
119	0x286ef19a	1.3264043e-14
120	0x00000000	0.0
121	0x37a9069e	2.0149451e-05
122	0x3d606b20	0.054789662
123	0x00000000	0.0
124	0x260cb7cd	4.8821354e-16
125	0x347e684f	2.369354e-07
126	0x2864947a	1.2688738e-14
127	0x00000000	0.0
128	0x21aa390f	1.1534751e-18
129	0x3a82bac5	0.0009973875
130	0x00000000	0.0
131	0x00000000	0.0
132	0x3b367af4	0.0027844282
133	0x00000000	0.0
134	0x00000000	0.0
135	0x3d22b2cb	0.03972129
136	0x00000000	0.0
137	0x00000000	0.0
138	0x3cc02628	0.023455694
139	0x00000000	0.0
140	0x00000000	0.0
141	0x0a9279cd	1.4105105e-32
142	0x03a85ab4	9.894977e-37
143	0x361c41d1	2.3284122e-06
144	0x30c09b85	1.401404e-09
145	0x00000000	0.0
146	0x00000000	0.0
147	0x27d3a823	5.874656e-15
148	0x3d17b0b3	0.037033748
149	0x3d574ad0	0.05256158
150	0x1d95ff03	3.9703648e-21
151	0x3dc72171	0.09723175
152	0x3db39deb	0.08770355
153	0x3d8779ad	0.06615005
154	0x18d54d83	5.5137476e-24
155	0x1ad06f00	8.6206114e-23
156	0x33a1c30b	7.532625e-08
157	0x384cacf6	4.8798473e-05
158	0x39105eff	0.00013768299
159	0x0a02a23f	6.2897874e-33
160	0x3b0cb84e	0.002147216
161	0x3a7cac1f	0.0009638685
162	0x27f472da	6.7848127e-15
163	0x3d13c41b	0.036075693
164	0x3d52cac7	0.051462915
165	0x00000000	0.0
166	0x337c1320	5.8690716e-08
167	0x325e2230	1.2929874e-08
